pytorch-mnist/test.pt (torch_old, 447131 bytes, 6 tensors)

weight f4 [128, 784]
0	0xbce8f099	-0.028435038
1	0x3d06660a	0.032812156
2	0x3c8e9d7f	0.017409084
3	0xbc9b2eb7	-0.018943174
4	0x3c7f6727	0.015588558
5	0xbbae88b1	-0.0053263535
6	0x3c21233f	0.0098350635
7	0x3cb721e1	0.022355022
8	0x3cc66b73	0.024221158
9	0xbcb15ebd	-0.02165162
10	0x3ccbaf09	0.024863737
11	0xbb99e143	-0.0046960427
12	0x3cfc354f	0.030787138
13	0x3c1666c0	0.009179771
14	0x3cf7644d	0.030199194
15	0x3be18420	0.0068822056
16	0x3cb00dd3	0.021490967
17	0x3ca92059	0.020645307
18	0x3ba0bc33	0.0049052476
19	0xbc5f5ccf	-0.013632967
20	0x3d0cf69c	0.034414873
21	0xbce76af7	-0.028249247
22	0xbbb435c7	-0.005499575
23	0x3c461d01	0.012091876
24	0xbcf489ed	-0.029850924
25	0xbc48d1d7	-0.012257061
26	0xbcf3e7db	-0.029773643
27	0x3ce727b7	0.02821718
28	0x3c8efea5	0.017455408
29	0xb72d51e0	-1.0330667e-05
30	0x3c82bceb	0.015959224
31	0x3c9ef1ab	0.019402346
32	0x3caf2613	0.02138046
33	0xbcfdc853	-0.030979311
34	0xbcbe6be9	-0.023244815
35	0x3be205fd	0.0068976865
36	0xbcab2f5a	-0.020896602
37	0xbced607a	-0.028976668
38	0x3c2273a4	0.009915266
39	0x3c9e969d	0.019358927
40	0xbc31f2c6	-0.010861104
41	0x3cc265b4	0.023730136
42	0x3cc2f6f7	0.023799403
43	0xb9ad8f57	-0.00033103928
44	0x3cb5fa58	0.0222141
45	0x3ce2b911	0.027676137
46	0xbc7abe54	-0.015304167
47	0x3c6ccbc8	0.014452882
48	0x3a772feb	0.00094294426
49	0x3ca6d291	0.020364078
50	0xbbbc8d74	-0.005754167
51	0xbb7f2468	-0.0038931612
52	0x3cad3649	0.02114405
53	0x3c9a799d	0.018856818
54	0xbd0ba28e	-0.03409057
55	0x3b4213cf	0.0029613858
56	0x3cfdbcd6	0.030973833
57	0xbc471455	-0.012150844
58	0x3cb53491	0.022119792
59	0xbc33f992	-0.010984795
60	0x3cee760b	0.029109022
61	0x3d0f82da	0.0350369
62	0xbcd853d4	-0.02640716
63	0x3c4cafc2	0.012493076
64	0xbd027093	-0.03184564
65	0xbc1c827c	-0.009552594
66	0x3c1975a3	0.009366426
67	0x3ca62c83	0.020284897
68	0x3d1bff16	0.038085066
69	0x3bba97b4	0.005694354
70	0xbc81445c	-0.015779667
71	0xbcacf71e	-0.021113928
72	0x3ba99c13	0.005176076
73	0x3c854f8d	0.016273284
74	0x3c1eed47	0.009700126
75	0x3bd16ec0	0.0063913763
76	0x3d001bb1	0.03127641
77	0x3cc3ecbe	0.023916598
78	0x3d03c51e	0.032170407
79	0x3c8d0a02	0.017216686
80	0xbca94d09	-0.020666616
81	0xbc37448e	-0.011185778
82	0x3c7f251f	0.015572815
83	0xbcd72e9b	-0.02626734
84	0x3c723ec5	0.014785473
85	0xbbf99dc9	-0.0076176864
86	0x3cb1a441	0.021684768
87	0x3c2c4374	0.010514129
88	0x3ccc1177	0.024910672
89	0xbcaa5d01	-0.0207963
90	0x3d1c23c1	0.038120035
91	0x3c77d16d	0.015125615
92	0x3c240783	0.010011557
93	0x3d15b5c1	0.036550287
94	0xbc00311b	-0.007824208
95	0x3c80dbab	0.015729746
96	0xbcd442af	-0.025910703
97	0xbc922b32	-0.017842863
98	0xbc8d2157	-0.017227812
99	0x3c3e6b72	0.011622297
100	0x3d30a7df	0.043128844
101	0x3c169daf	0.009192868
102	0xbc86a6db	-0.016436985
103	0x3ca63431	0.020288559
104	0x3c97ef57	0.018546743
105	0x3c2f8d10	0.010714784
106	0x3c987f45	0.018615374
107	0x3a1cd840	0.00059831515
108	0xbc69f3a3	-0.014279279
109	0xbb6e76c6	-0.0036386712
110	0x3c3f17e0	0.011663407
111	0x3cfbf395	0.030755797
112	0xbc99d377	-0.018777592
113	0x3ab14d00	0.0013526976
114	0xbc60cd52	-0.013720827
115	0x3bc183e3	0.0059056147
116	0xbcaefb0a	-0.02135994
117	0xbc2cd137	-0.010547928
118	0x3d0f7bed	0.035030294
119	0x3c813541	0.015772464
120	0xbd0b6ebc	-0.03404115
121	0x3b3482ec	0.0027543856
122	0xbbb6cac4	-0.0055783708
123	0xbc07fb8b	-0.008299719
124	0x3ca50419	0.020143555
125	0x3c9b456d	0.018954003
126	0xbd22d0a5	-0.03974976
127	0xbc76042b	-0.015015642
128	0x3c643971	0.013929711
129	0x3d0742eb	0.033022802
130	0xbcefb2be	-0.029260036
131	0x3cc53d5b	0.024077108
132	0xbb230892	-0.0024876934
133	0xbcc4e835	-0.024036506
134	0xba9b1172	-0.0011830761
135	0x3bfacf2b	0.007654091
136	0x3cbde70d	0.023181463
137	0x3ca15fde	0.019699033
138	0xbcd2d538	-0.025736436
139	0xba895893	-0.0010478668
140	0x3c90bfcf	0.017669586
141	0xbcff06bf	-0.031131146
142	0x3cafdab1	0.021466585
143	0x3c9912d3	0.018685734
144	0xbbd0c9da	-0.006371719
145	0xbcb80bbc	-0.022466533
146	0x3c66588d	0.014059198
147	0xbcf3986c	-0.029735766
148	0xbd4c3358	-0.049853653
149	0xbd3e922f	-0.04652613
150	0x3cc685ea	0.024233777
151	0xbcaceb60	-0.02110833
152	0x3b3f5ac3	0.0029198385
153	0xbd196b7d	-0.037456024
154	0xbc9ac5ee	-0.018893208
155	0xbce7227b	-0.028214684
156	0xbb5b1e4e	-0.003343481
157	0x3c8c348e	0.017114904
158	0xbc2f2152	-0.0106890965
159	0x3c4bffa9	0.012451091
160	0x3cb0e962	0.02159566
161	0x3a99be42	0.0011729675
162	0xbc7299c2	-0.0148071665
163	0x3bfce7da	0.0077180685
164	0x3cc2572f	0.023723213
165	0x3b0cb280	0.00214687
166	0x3cb2c6e9	0.021823363
167	0xbcc6fea3	-0.024291342
168	0x3ccb7011	0.02483371
169	0xbc9bae3f	-0.019003985
170	0x3cba7818	0.022762343
171	0x3c20fc23	0.009825739
172	0xbcdff607	-0.027338995
173	0xbd0a153e	-0.033711664
174	0xbb91be82	-0.004447759
175	0xbd2093d5	-0.039203484
176	0xbd361ae9	-0.044459257
177	0xbd5aaa77	-0.053385224
178	0xbc198800	-0.009370804
179	0xbd74e6e5	-0.05979051
180	0xbd9e523c	-0.07730529
181	0xbd0d3548	-0.03447464
182	0xbd37226f	-0.044710573
183	0xbd4b392b	-0.049615066
184	0xbd51a080	-0.051178455
185	0xbd377921	-0.044793252
186	0xbc63b6eb	-0.0138985915
187	0x3c1084f3	0.00882076
188	0x3c8b9032	0.017036531
189	0xbcac2914	-0.021015681
190	0xbc73deff	-0.014884709
191	0xbceca443	-0.02888692
192	0xbc94a244	-0.01814378
193	0x3cf44aed	0.029820884
194	0xb844c5bc	-4.6914196e-05
195	0xbcb0bcef	-0.021574466
196	0xbc0f0c35	-0.008730938
197	0x3d17c398	0.037051767
198	0x3b5026b4	0.003176135
199	0xbc72a3e7	-0.014809585
200	0xbcadbafa	-0.021207321
201	0xbbfee9d7	-0.0077793407
202	0xbb03bd2f	-0.0020101776
203	0xbd128778	-0.035773724
204	0xbd14a821	-0.036293153
205	0xbd309e6c	-0.043119833
206	0xbd48f103	-0.04905797
207	0xbd7e08aa	-0.06201998
208	0xbd8ed674	-0.069744974
209	0xbd8d1095	-0.068879284
210	0xbd83b146	-0.064302966
211	0xbce95577	-0.028483136
212	0xbd436d99	-0.047711942
213	0x3c8e01ca	0.017334837
214	0xbb756819	-0.003744608
215	0x3bab889b	0.0052347905
216	0xbcc38df9	-0.023871409
217	0x3c828da1	0.015936675
218	0xba0f5513	-0.0005467694
219	0xbd38df4a	-0.04513482
220	0xbd0e9039	-0.03480551
221	0xbd383a0e	-0.04497724
222	0x3c3d0b9f	0.011538415
223	0x3cba6c4d	0.02275672
224	0xbc25917d	-0.010105488
225	0xbc4669cf	-0.012110188
226	0xbcf9652a	-0.030443747
227	0xbcf0130d	-0.02930596
228	0xbc0ddb60	-0.00865826
229	0xbc477867	-0.012174702
230	0x3cd42ed6	0.02590124
231	0x3c7c9ffc	0.015419003
232	0x3c11067d	0.008851645
233	0xbcfecee8	-0.03110452
234	0xbd57b24b	-0.052660268
235	0xbca1d592	-0.019755159
236	0xbc337251	-0.010952548
237	0xbce1c792	-0.027560983
238	0x3c309406	0.010777479
239	0xbc46957b	-0.0121206
240	0x3beb1216	0.007173787
241	0x3d041a40	0.032251596
242	0x3d2ae67b	0.04172371
243	0x3c6b3c8b	0.014357696
244	0x3cb8bcae	0.022550907
245	0x3cd78b83	0.026311642
246	0xbc8603ea	-0.016359288
247	0x3cd0e69d	0.02550059
248	0xbd630a1e	-0.05542957
249	0xbd52e1c2	-0.05148483
250	0x3ce95284	0.02848173
251	0x3c2f48a2	0.010698469
252	0xbca78ebd	-0.020453805
253	0xbc9f0847	-0.019413127
254	0xbcb1bf26	-0.021697592
255	0x3d128d82	0.035779484

bias f4 [128]
0	0x3ca13c81	0.01968217
1	0xbd29de1c	-0.041471586
2	0xbc6fb094	-0.014629502
3	0x3c427176	0.0118678715
4	0xbcecfc6f	-0.028928963
5	0x3ca9a62e	0.020709123
6	0xbcbc5b34	-0.022992708
7	0x3d0744f6	0.03302475
8	0xbcfc6d48	-0.030813828
9	0xbc60eeba	-0.013728792
10	0x3c9f65a6	0.01945765
11	0xbd06f2a7	-0.032946255
12	0xbce7b710	-0.028285533
13	0xbca6a7c4	-0.020343669
14	0xbcd500e1	-0.026001396
15	0x3caaf2cd	0.02086773
16	0xbc5cbe3d	-0.013473091
17	0x39da9ca2	0.000416969
18	0x3c04a10b	0.008095036
19	0x3baf6240	0.0053522885
20	0xbcad386b	-0.021145066
21	0xbbf92ea5	-0.0076044374
22	0x3bbb97ab	0.0057248673
23	0xbc894c38	-0.016759977
24	0x3ccc33b8	0.024927005
25	0x3c4b5018	0.012409233
26	0x3cc9d730	0.024638742
27	0xbc8b44cc	-0.017000578
28	0x3ce12dd1	0.027487667
29	0xbd1b8bee	-0.037975244
30	0x3bf71038	0.007539775
31	0x3cdbc9fe	0.026829716
32	0x3d04c476	0.032413922
33	0xbcae5f63	-0.021285718
34	0xb87d6c8d	-6.0420996e-05
35	0x3cfdc6f9	0.030978667
36	0x3b7eec1a	0.0038898052
37	0x3cb3ca89	0.021947162
38	0xbc89d54c	-0.01682534
39	0x3cb243b9	0.021760808
40	0x3c277181	0.0102199325
41	0x3cd22737	0.025653465
42	0x3d1e2ce9	0.03861705
43	0xbba30f0f	-0.0049761604
44	0x3bbdba41	0.0057900255
45	0xbb9f572a	-0.0048626857
46	0x3c997a26	0.018735003
47	0x3cbceee1	0.023063125
48	0xbccf92a3	-0.025338477
49	0xbd098c82	-0.033581264
50	0xbc642fdc	-0.013927426
51	0xbc885f94	-0.016647138
52	0xbc09d4fb	-0.008412595
53	0x3cb8f9ca	0.022580046
54	0xbc9da3f5	-0.01924322
55	0x3cf7090e	0.030155685
56	0xbcc004fd	-0.023439879
57	0x3ccd3dae	0.025053825
58	0xbb6e8427	-0.0036394687
59	0x3cfa2a7b	0.030537834
60	0x3cc413e3	0.023935264
61	0xbcc7fa1f	-0.02441126
62	0x3c8ea7ba	0.017413963
63	0x3d00a9b9	0.03141186
64	0xbc0d875b	-0.008638228
65	0xbc7f291b	-0.015573765
66	0xbc4e80c0	-0.012603939
67	0x3bce2590	0.006291099
68	0x3c15186c	0.009100061
69	0x3cbd95af	0.023142664
70	0x3bbdb157	0.005788963
71	0xbc5a50ba	-0.013324911
72	0xbc9ec5f1	-0.019381495
73	0x3c19d72d	0.009389681
74	0x3b52e014	0.0032177018
75	0xbb73dbdc	-0.0037209904
76	0x3ccee202	0.025254253
77	0xbc259589	-0.010106453
78	0x3d0afb0e	0.03393083
79	0x3d1a267c	0.037634358
80	0xbcd97aee	-0.026547875
81	0x3ca8d2b8	0.020608291
82	0xbce94df1	-0.028479548
83	0x3d0d647e	0.034519665
84	0xbbc90905	-0.0061351084
85	0xbd1ac2fc	-0.037783608
86	0xbd12f425	-0.035877366
87	0x3bfb37d0	0.0076665655
88	0xbc9c217e	-0.01905894
89	0xbca2ce8a	-0.019873876
90	0x3c8fa890	0.017536432
91	0xbca7979e	-0.020458039
92	0xbcf6167e	-0.030040022
93	0xbc322a59	-0.010874354
94	0xbc2e981d	-0.010656384
95	0xbcb66998	-0.022267148
96	0xbcfedf2e	-0.03111228
97	0x3b8e401a	0.0043411376
98	0x3c7981de	0.015228717
99	0x3ce1ca9a	0.027562428
100	0xbc47899f	-0.0121788075
101	0x3cb70096	0.022339147
102	0xbcdaf2d7	-0.026727123
103	0x3d1d520d	0.038408328
104	0xbd10a55a	-0.03531394
105	0x3c045e42	0.008079113
106	0x3cc564ff	0.02409601
107	0x3c30d197	0.010792158
108	0xbcb0915e	-0.021553691
109	0xbca243cd	-0.01980772
110	0xbd1e9301	-0.038714413
111	0x3cf20fab	0.029548487
112	0xbd23cdf6	-0.03999134
113	0x3cc7b1cc	0.024376772
114	0xbbd26022	-0.0064201513
115	0x3bce45d6	0.006294946
116	0x3c6a5972	0.014303552
117	0x3aac5900	0.0013149083
118	0x3cb22f8e	0.021751191
119	0x3c8440fa	0.016144264
120	0x3c0efd93	0.008727449
121	0x3b4e542d	0.0031483278
122	0x3b637d93	0.00347123
123	0x3ccedea4	0.025252648
124	0x3cac6b36	0.021047216
125	0x3c2338b0	0.009962246
126	0x3cc9f61c	0.024653487
127	0x3cef0d29	0.02918108

weight f4 [64, 128]
0	0xbd310ba3	-0.04322399
1	0x3ce5d95f	0.028057752
2	0x3e283148	0.1642505
3	0xbd3eb0fc	-0.046555504
4	0xbd6bff02	-0.05761624
5	0xbc49c051	-0.012313918
6	0xbd99ebe3	-0.07515695
7	0x3dd7fcc3	0.10546257
8	0xbd399007	-0.04530337
9	0x3dc9c161	0.09851337
10	0x3d0a2163	0.033723246
11	0xbb5af0d8	-0.0033407714
12	0xbdb20f55	-0.086943306
13	0xbe59d933	-0.21274261
14	0xbc56d729	-0.013112822
15	0x3dbd18c9	0.09233243
16	0x3e0f61dd	0.14002176
17	0x3daaed16	0.08346002
18	0xbc0a9ec5	-0.008460705
19	0xbb89621b	-0.0041926033
20	0xbdfeccca	-0.12441404
21	0x3c8d6d7b	0.017264118
22	0x3d162cd6	0.036663853
23	0x3cfcfc49	0.030882018
24	0x3de4f401	0.111793526
25	0xbe811ff8	-0.25219703
26	0x3d0a21fa	0.03372381
27	0xbe8efd78	-0.27927756
28	0xbdb0b17b	-0.08627602
29	0xbd90e255	-0.070744194
30	0x3c348db0	0.011020109
31	0x3d45c3cb	0.048282426
32	0xbe826354	-0.25466406
33	0x3e30674c	0.17226905
34	0xbbfe5e47	-0.0077627036
35	0xbd1a8e5b	-0.037733417
36	0x3e5f0a27	0.21781217
37	0x3d067958	0.032830566
38	0xbe534774	-0.20632726
39	0xbe29fb66	-0.16599807
40	0xbde7de7e	-0.11321734
41	0xbd8e05d4	-0.069347054
42	0x3c9d12e4	0.019174047
43	0x3d8ace4a	0.06777628
44	0x3db647cc	0.08900413
45	0xbcedaa94	-0.029012002
46	0x3d787517	0.06065854
47	0xbdd7c72e	-0.105360374
48	0xbd05b755	-0.032645542
49	0xbe214503	-0.15748982
50	0xbe5b827a	-0.21436492
51	0x3de7c9f0	0.113178134
52	0x3d5a154d	0.05324297
53	0x3df75541	0.12076808
54	0xbe384db2	-0.17998388
55	0x3d0fb060	0.035080314
56	0x3e30cbeb	0.17265289
57	0x3ca5547c	0.020181887
58	0x3decf023	0.1156924
59	0xbd00b43d	-0.03142189
60	0xbe58b056	-0.21161017
61	0xbdc0b849	-0.094101496
62	0x3daa02e6	0.08301334
63	0xbcffc82d	-0.031223381
64	0xbb3f2fa0	-0.0029172674
65	0xbd793541	-0.060841803
66	0x3e685ebb	0.22692387
67	0x3befed09	0.007321958
68	0x3c9b3712	0.018947158
69	0xbdd3863e	-0.10328339
70	0xbcd978c4	-0.026546843
71	0xbdbbea6d	-0.091755725
72	0x3e078633	0.13234787
73	0xbd276ebd	-0.040877093
74	0xbe3ac772	-0.18240145
75	0x3d911156	0.07083385
76	0x3ca8a626	0.020587038
77	0x3de9885c	0.114029616
78	0x3dc18b94	0.094504505
79	0xbd6ba118	-0.057526678
80	0xbc97d73a	-0.018535245
81	0x3c18b9ca	0.009321639
82	0xbdbd2227	-0.0923503
83	0x3e85a666	0.26103514
84	0xbc4eca14	-0.012621421
85	0x3d34d427	0.044147637
86	0xbd6620bc	-0.05618356
87	0xbdf632ae	-0.12021385
88	0xbd03a6f2	-0.032141633
89	0xbd7a0fff	-0.06105041
90	0xbd97037b	-0.07373711
91	0x3e1fefaf	0.15618776
92	0xbd1d6538	-0.038426608
93	0xbc0b889b	-0.008516456
94	0x3e13cad1	0.14432837
95	0x3daaf53d	0.08347557
96	0x3bc139e3	0.005896793
97	0xbe430ccc	-0.1904785
98	0xbd776a50	-0.060404122
99	0x3e01ecdb	0.1268801
100	0x3e517bcb	0.2045738
101	0x3df1298a	0.11775501
102	0xbd051422	-0.032489903
103	0xbd86f389	-0.065894194
104	0x3d69c07d	0.057068337
105	0x3d39c485	0.04535343
106	0x3d36e293	0.04464967
107	0xbbfa55cf	-0.0076396237
108	0xbe550376	-0.20802101
109	0x3e6ac7a7	0.22927724
110	0x3c86276f	0.016376225
111	0xbe1f9798	-0.15585172
112	0x3d70e462	0.058811553
113	0xbe887f11	-0.26659444
114	0x3e06fbee	0.13182041
115	0xbe719ef0	-0.23595786
116	0x3d567031	0.052353088
117	0xbd87b518	-0.06626338
118	0x3d8ecf88	0.06973177
119	0xbd895061	-0.06704784
120	0xbd22fe4d	-0.0397933
121	0x3e5422e2	0.20716432
122	0xbd651e29	-0.055936966
123	0xbda834da	-0.08213206
124	0x3c9468e2	0.018116418
125	0x3e1228e3	0.1427341
126	0xbe23f2af	-0.16010545
127	0xbe1dfa17	-0.15427433
128	0x3dc06a37	0.09395259
129	0xbd7239fb	-0.059137326
130	0xbd771fef	-0.06033319
131	0xbd8d57c6	-0.06901507
132	0x3d717810	0.05895239
133	0x3dc69595	0.09696499
134	0xbbb44549	-0.0055014235
135	0x3ccc774f	0.024959235
136	0x3d9290d8	0.07156533
137	0xbca317c7	-0.019908799
138	0x3dd3e6c0	0.103467464
139	0xbd8d4414	-0.068977505
140	0x3c883bb8	0.016630039
141	0xbc397dad	-0.011321467
142	0x3d3612b5	0.044451434
143	0xbd311615	-0.04323395
144	0x3d9917df	0.07475256
145	0x3d17a51e	0.037022702
146	0xbc86ca40	-0.016453862
147	0x3c3a32de	0.011364667
148	0xbc325af4	-0.010885943
149	0x3d9924f8	0.07477754
150	0xbd864d7f	-0.0655775
151	0x3dabb19a	0.08383484
152	0x3c868059	0.016418623
153	0xbd5cfef5	-0.053954083
154	0xbca5fc0f	-0.020261792
155	0xbda28ce8	-0.07937032
156	0x3c8f2ec2	0.01747835
157	0x3d6dff1d	0.058104623
158	0xbd9bc515	-0.0760595
159	0x3c8566ba	0.016284335
160	0x3da6b059	0.081391044
161	0x3d67a858	0.05655703
162	0x3d6a3ebd	0.05718874
163	0xbc8df1fd	-0.017327303
164	0x3d2e2ab7	0.042521205
165	0x3b664bf5	0.0035140489
166	0x3d8cccfd	0.06875036
167	0xbd8a0add	-0.06740353
168	0x3d42d30d	0.047564555
169	0x3d8afb6a	0.06786235
170	0x3d052436	0.032505237
171	0x3d187b41	0.03722692
172	0xbd925f76	-0.07147114
173	0x3ce7d20d	0.028298402
174	0x3daa91d0	0.08328593
175	0xbd07c14d	-0.03314333
176	0x3d591ade	0.05300414
177	0xbd18ad7b	-0.03727482
178	0x3d13f4de	0.036122195
179	0x3d2efebf	0.042723414
180	0xbd634d6d	-0.05549376
181	0x3cefd3e2	0.029275838
182	0xbd9aad40	-0.07552576
183	0xbd7d5ec9	-0.061857972
184	0xbd69d736	-0.057090007
185	0x3d227319	0.039660547
186	0x3da360b9	0.07977433
187	0xbd4907e5	-0.049079794
188	0x3d810072	0.06298913
189	0x3cbd8afd	0.023137564
190	0xbc206c9e	-0.009791521
191	0x3ce0f88f	0.027462272
192	0xbd0e2ab9	-0.034708712
193	0x3d9d5fc3	0.07684281
194	0x3d25ed74	0.040509656
195	0x3c205c2f	0.009787603
196	0x3d317644	0.043325678
197	0xbdaae170	-0.0834378
198	0xbda36d3d	-0.0797982
199	0x3c2ab420	0.010418922
200	0xbb57b4be	-0.0032914127
201	0x3d608b3f	0.054820295
202	0xbd8a6ecc	-0.06759414
203	0x3ce2bb26	0.02767713
204	0xbc796ecc	-0.01522417
205	0x3d979258	0.0740096
206	0x3bcad245	0.006189617
207	0xbc887314	-0.016656436
208	0x3cd6b123	0.026207512
209	0xbd153dd2	-0.03643591
210	0xbd893167	-0.06698876
211	0xbcec0ac8	-0.028813735
212	0xbd36c6bd	-0.044623125
213	0xbcaaedd9	-0.020865368
214	0x3cd9ff55	0.02661101
215	0xbd84cee4	-0.06484774
216	0xbcd885f8	-0.026431069
217	0x3d67dd7b	0.056607705
218	0xbbad6e7a	-0.005292711
219	0x3d9d138b	0.07669743
220	0xbd9ed995	-0.07756344
221	0x3d326125	0.043549675
222	0x3ccf79ca	0.025326628
223	0x3cde22f2	0.027116273
224	0xbda8359c	-0.0821335
225	0x3d3ecd6e	0.04658263
226	0x3d41d18e	0.047318988
227	0xbd73f2f9	-0.05955789
228	0xbca1a42e	-0.019731607
229	0xbd53d865	-0.05172004
230	0xbd3d7134	-0.046250537
231	0xbda34184	-0.079714805
232	0x3d4e7e88	0.05041364
233	0xbcfcbbff	-0.030851362
234	0x3c9de40e	0.019273784
235	0xbd8fff28	-0.07031089
236	0xbdab7172	-0.08371247
237	0x3dd4999c	0.10380861
238	0xbce5f90d	-0.028072858
239	0xbde20213	-0.11035552
240	0xbcf26ac1	-0.02959192
241	0xbda4c2e7	-0.08044987
242	0x3b849265	0.004045772
243	0xbd34697f	-0.04404592
244	0x3cd5d929	0.026104527
245	0xbd9f9225	-0.07791547
246	0x3da0cb04	0.07851222
247	0x3db8b6e8	0.090192616
248	0x3c05561f	0.008138209
249	0x3ccd71e3	0.02507872
250	0xbd87aaf4	-0.066244036
251	0xbd8f9fe8	-0.070129216
252	0x3cf13b2d	0.029447163
253	0xbd4b33dd	-0.049610008
254	0xbd9b1322	-0.07572009
255	0x3d777ebc	0.060423598

bias f4 [64]
0	0xbcbeb17a	-0.023277987
1	0xbd3e9844	-0.04653193
2	0x3d7ba96f	0.06144088
3	0x3c5afb89	0.013365635
4	0x3cbe2209	0.023209589
5	0xbb07a9ce	-0.0020700577
6	0x3c9c9af2	0.019116852
7	0x3c9acffd	0.018898005
8	0xbd7c5148	-0.061600953
9	0x3d4a8917	0.049447145
10	0x3cd8bc10	0.026456863
11	0xbda8986e	-0.08232199
12	0x3db25b24	0.0870879
13	0x3dd0eba3	0.10201194
14	0x3d1f5d25	0.03890719
15	0xbc44fd59	-0.012023293
16	0xbd6072c3	-0.054796945
17	0x3d308d36	0.04310342
18	0xbc4b66fa	-0.012414688
19	0x3c799ed6	0.015235623
20	0xbd45af02	-0.048262604
21	0xbd461b3e	-0.048365824
22	0x3bd4cd5e	0.0064942082
23	0x3c3cd723	0.011525902
24	0xbd12816b	-0.035767954
25	0x3d70490b	0.05866341
26	0x3d3fbf5e	0.04681336
27	0x3cc81599	0.024424361
28	0xbd663fc4	-0.056213155
29	0x3ccffb69	0.025388436
30	0xbda1845b	-0.07886573
31	0x3d4b7ddc	0.049680576
32	0x3dacd358	0.08438748
33	0x3d92584a	0.07145746
34	0xbd82b606	-0.063823745
35	0x3c9b6dec	0.018973313
36	0xbda2654e	-0.079294786
37	0x3d3c087e	0.045906536
38	0x3dcd8bf9	0.10036463
39	0xbc56391f	-0.013075142
40	0x3d1f70d1	0.03892595
41	0xbd7e9571	-0.062154237
42	0x3dd3ae43	0.10335972
43	0xbca3f50f	-0.020014314
44	0xbd00c6d0	-0.031439602
45	0xbc1a3bb1	-0.009413646
46	0x3c82e407	0.015977873
47	0x3c649062	0.013950439
48	0xbc81648f	-0.01579502
49	0xbd422eff	-0.0474081
50	0x3d0bd9f8	0.034143418
51	0xbd611304	-0.054949775
52	0xbd05d397	-0.03267249
53	0x3ccac7f9	0.024753558
54	0xbd9da652	-0.07697739
55	0x3dbd0cf9	0.0923099
56	0x3dce3ea1	0.10070539
57	0x3cf836da	0.030299593
58	0x3d20fc72	0.03930325
59	0x3c37ca04	0.011217598
60	0x3ccd7bd3	0.025083458
61	0xbcee8ec9	-0.02912082
62	0xbd458e91	-0.048231665
63	0x3cbad615	0.02280716

weight f4 [10, 64]
0	0x3eb9d3b3	0.36294326
1	0xbcf4a59d	-0.029864127
2	0xbdbdd651	-0.09269393
3	0x3dd9ba1e	0.10631202
4	0x3eae17d5	0.34002557
5	0x3e9108c7	0.2832701
6	0xbd3552d4	-0.044268444
7	0x3e954bb8	0.2915933
8	0xbdd6ed83	-0.104945205
9	0xbd7b5c1d	-0.061367143
10	0x3c80e5f3	0.015734648
11	0xbb2102f4	-0.002456841
12	0xbe9f607e	-0.31128305
13	0xbe396f06	-0.18108758
14	0xbd7cce27	-0.06172004
15	0xbcb7cb79	-0.02243589
16	0x3f0159df	0.5052776
17	0xbd851804	-0.06498721
18	0xbea22164	-0.316661
19	0x3e45dfbd	0.1932363
20	0xbed5ed26	-0.41782492
21	0xbecd276b	-0.40069136
22	0x3e97c0af	0.29639193
23	0x3cb84bc2	0.022497062
24	0x3d3a0797	0.045417394
25	0x3db43e21	0.08800913
26	0x3e23d9fd	0.16001125
27	0xbdfd93d2	-0.1238171
28	0xbad2d80b	-0.0016086114
29	0xbda65b3a	-0.08122869
30	0x3e705d0a	0.23472992
31	0x3e8b9fc5	0.27270332
32	0x3ca8d067	0.020607186
33	0xbe845126	-0.2584316
34	0x3e3ddbc9	0.18540873
35	0xbe4ed7df	-0.20199536
36	0x3eb9a7da	0.36260873
37	0xbe8b9779	-0.27264002
38	0xb9dbde52	-0.00041936577
39	0x3e0a8836	0.13528523
40	0xbd858c10	-0.065208554
41	0xbe128f6f	-0.14312528
42	0x3db2fb81	0.08739377
43	0xbd81e8ab	-0.06343206
44	0x3d989975	0.074511446
45	0x3e9a3c49	0.3012412
46	0xbe927c98	-0.28610682
47	0xbcc759b0	-0.024334759
48	0xbea3d2b4	-0.3199669
49	0xbd45a261	-0.04825056
50	0xbe4abc0f	-0.19798301
51	0x3d8df642	0.069317356
52	0x3d9e701b	0.07736226
53	0x3ed8163a	0.42204458
54	0xbdfa2af1	-0.12215222
55	0xbd9a3d0c	-0.07531175
56	0xbda26445	-0.07929281
57	0x3db3a4ad	0.08771644
58	0xbe7a1ff4	-0.24426252
59	0x3d6bf49b	0.05760632
60	0xbd86ecd8	-0.06588143
61	0x3e45d782	0.19320491
62	0xbdace0c9	-0.08441312
63	0xbeb1e073	-0.34741554
64	0xbe60d22a	-0.21955171
65	0xbd9c26fd	-0.07624624
66	0x3db9c41a	0.090706065
67	0xbcd001d8	-0.025391504
68	0x3edb487c	0.4282874
69	0xbe31e270	-0.17371535
70	0xbcb72a2f	-0.022358982
71	0x3d3a154e	0.045430474
72	0x3ebf1b8a	0.37325698
73	0xbe97f1f0	-0.2967677
74	0xbe2a548b	-0.16633813
75	0x3e02d3ad	0.1277606
76	0xbe961e0a	-0.29319793
77	0xbdaba8fc	-0.083818406
78	0xbdcc7791	-0.09983743
79	0x3d66e462	0.056370147
80	0xbecc1c7f	-0.3986549
81	0xbd8e6a2e	-0.06953846
82	0x3eddddb8	0.4333322
83	0xbdf8af5b	-0.121428214
84	0xbd82f2d9	-0.06393976
85	0x3e80e1b5	0.251722
86	0xbd10d3a2	-0.03535808
87	0x3e9ee06d	0.31030598
88	0xbc557b51	-0.013029889
89	0xbdd50426	-0.10401182
90	0xbe36a575	-0.17836554
91	0x3d51b2fd	0.051196087
92	0xbc66a3e0	-0.014077157
93	0xbe4602ea	-0.19337049
94	0x3da05b0e	0.07829867
95	0xbe01e817	-0.12686191
96	0x3ebf7920	0.373971
97	0x3e863838	0.26214767
98	0x3dbde18d	0.09271536
99	0xbeab9e7e	-0.33519357
100	0x3dfeda49	0.12443978
101	0x3f1711eb	0.59011716
102	0x3e23166f	0.15926526
103	0x3e1e4855	0.1545728
104	0x3dc80f40	0.09768534
105	0xbd35eaa5	-0.044413228
106	0xbddf9be0	-0.10918403
107	0x3da943a7	0.08264857
108	0x3ea4d6d3	0.32195148
109	0xbe956c4e	-0.29184192
110	0x3f058b31	0.52165514
111	0xbd16ca96	-0.036814295
112	0x3e744464	0.23854214
113	0x3d87c526	0.066294
114	0x3e9e5cab	0.30930075
115	0x3e453962	0.19260171
116	0xbe5768c2	-0.21036056
117	0xbd54e633	-0.051977348
118	0x3dbe0104	0.092775375
119	0x3cc3e03c	0.023910634
120	0x3e2f9023	0.17144828
121	0xbda008aa	-0.078141525
122	0xbe0b1ac8	-0.13584435
123	0xbedb4b0e	-0.428307
124	0xbe9ad657	-0.30241653
125	0xbecaecc7	-0.39633772
126	0xbebb323e	-0.3656177
127	0x3de1f91d	0.11033843
128	0xbf0f6666	-0.5601562
129	0xbd7321c6	-0.05935838
130	0xbd2075b0	-0.039174736
131	0x3cad1124	0.021126337
132	0x3d048781	0.03235579
133	0x3ef9cdb3	0.4878975
134	0x3ae1da47	0.0017231189
135	0x3e020553	0.12697344
136	0x3e201cbd	0.15635963
137	0x3dae906e	0.085236415
138	0x3df1d7fe	0.11808775
139	0xbde9bf3a	-0.11413427
140	0xbec78e96	-0.38975972
141	0x3ee4f7bd	0.4472026
142	0x3d3430e4	0.04399194
143	0x3dd45a2d	0.10368762
144	0x3ea045e8	0.31303334
145	0x3cbe8090	0.023254663
146	0x3e3d2140	0.18469715
147	0x3ca69d75	0.020338753
148	0xbec6d04a	-0.38830787
149	0x3f1c9a64	0.6117308
150	0x3d7206ca	0.059088506
151	0x3d4e15e2	0.050313838
152	0xbe40aede	-0.18816707
153	0x3d976379	0.0739202
154	0xbe405d35	-0.18785556
155	0xbc5740bc	-0.0131379925
156	0x3d0aafcd	0.033859063
157	0xbeb404eb	-0.35160002
158	0xbd8a23a6	-0.06745081
159	0xbe6e1738	-0.23251045
160	0x3e9d36b7	0.30705807
161	0x3e5a1f88	0.2130109
162	0x3cea62c4	0.028611548
163	0x3e591f7f	0.21203421
164	0x3d6aec13	0.057354044
165	0xbd2265d1	-0.03964788
166	0x3e040a59	0.12894572
167	0xbd0c320c	-0.034227416
168	0x3dad275d	0.084547736
169	0xbd88b01e	-0.06674217
170	0xbeb28418	-0.34866405
171	0x3e0f4557	0.13991295
172	0xbebdd2f7	-0.37075016
173	0xbe30d06c	-0.17267007
174	0x3eabc8f5	0.33551756
175	0x3e03503e	0.12823579
176	0xbedf10a6	-0.4356739
177	0xbdcc0f37	-0.099638395
178	0x3e82b36c	0.25527513
179	0xbc6e1639	-0.0145316655
180	0xbd2f0df4	-0.042737916
181	0x3f20f492	0.62873185
182	0x3cafe7f7	0.021472914
183	0xbe3c0d68	-0.18364489
184	0xbe2a2427	-0.16615354
185	0x3dd63471	0.10459221
186	0x3e581cb3	0.21104698
187	0x3e9d2be6	0.30697554
188	0xbdce1900	-0.10063362
189	0x3ec0d72b	0.3766416
190	0x3df6468e	0.12025176
191	0xbeab76ea	-0.33489162
192	0xbe391305	-0.18073662
193	0x3d9a7e3e	0.0754361
194	0x3d4132ed	0.047167707
195	0xbdd77596	-0.105204746
196	0xbecee6b7	-0.40410396
197	0xbdda1578	-0.10648626
198	0xbdfe2b52	-0.124106064
199	0x3e1d7bcc	0.15379256
200	0xbe908a23	-0.2823039
201	0x3e6e41ef	0.23267339
202	0x3d5fbd77	0.054624047
203	0xbdc9c5ab	-0.09852155
204	0x3e903959	0.28168753
205	0xbeac467d	-0.33647528
206	0x3d9df81a	0.07713337
207	0xbd9222c6	-0.07135539
208	0xbe703119	-0.2345623
209	0xbe800935	-0.25007024
210	0x3f0a6aab	0.5406901
211	0x3bbd7253	0.005781451
212	0xbe6d6121	-0.23181583
213	0x3cd8bc71	0.026457043
214	0x3dfe2fd2	0.12411465
215	0xbe561f06	-0.20910272
216	0xbec11a0c	-0.37715185
217	0xbd40024a	-0.046877183
218	0x3f0dbf2f	0.5536985
219	0x3edff44f	0.4374108
220	0xbdc212cb	-0.09476241
221	0x3dad51d5	0.08462874
222	0xbdf35fae	-0.11883484
223	0xbe59984c	-0.21249503
224	0x3ed479c2	0.41499144
225	0x3e39fe8a	0.18163505
226	0x3ddb8d5c	0.107203215
227	0x3ebca576	0.36844987
228	0x3e15ef36	0.14642033
229	0x3d200dbf	0.03907561
230	0x3e48eeb4	0.19622308
231	0xbe29c9a6	-0.16580829
232	0xbdba3470	-0.09092033
233	0x3e37fc1f	0.1796727
234	0x3ebff9b1	0.37495187
235	0xbd988730	-0.0744766
236	0xbbde10d9	-0.0067769107
237	0xbec3a3fd	-0.3821105
238	0xbeb8ad1f	-0.3606958
239	0x3e1796e2	0.14803651
240	0x3ef5fb68	0.4804337
241	0x3c54e7d7	0.012994728
242	0x3e0137e5	0.12618978
243	0x3e639bc2	0.22227386
244	0x3ef5f96d	0.4804186
245	0xbe4a7a89	-0.19773306
246	0x3cf14478	0.029451594
247	0xbe849bb2	-0.25900036
248	0xbf1b452a	-0.6065241
249	0x3d1d066b	0.0383362
250	0x3e6214cd	0.22078247
251	0xbdec94c3	-0.115518115
252	0x3e0d715a	0.13812771
253	0x3e513186	0.20429048
254	0xbe17475e	-0.14773318
255	0x3e2dabda	0.16960087

bias f4 [10]
0	0xbe08dd03	-0.1336556
1	0x3c065231	0.008198307
2	0x3badf83c	0.005309133
3	0xbcf5d15b	-0.030007055
4	0x3e1d6de1	0.15373947
5	0x3da7fd65	0.08202628
6	0xbc51debd	-0.012809453
7	0x3da89abd	0.08232639
8	0x3b967078	0.004591044
9	0x3df1f299	0.1181385
